best_cool_model.tflite (tflite, 2824 bytes, 3 tensors)

arith.constant1 f4 [1, 32]
000000 b9 64 d1 3e e7 91 82 3f b3 b9 58 3e 21 be 0b 3d
       0.40897158 1.0200776 0.21164589 0.034116868
000010 fe 65 cb 3c f2 3f 16 3e 93 e6 2a bd 8d 99 1f c0
       0.024828907 0.1467283 -0.0417238 -2.493747
000020 6e 69 8b 3f d6 d1 6b 3e d2 a4 be 3e 93 a9 b2 3f
       1.089155 0.23029265 0.37235123 1.3958
000030 66 4e f2 3c 81 73 44 bf 0b 7d 03 bf 20 6b 09 bf
       0.029578399 -0.76738745 -0.51362675 -0.53679085
000040 68 41 4f be a3 de ad 3e 05 c6 aa 3e 37 17 cd 3e
       -0.20239794 0.3395892 0.33354202 0.40056774
000050 50 9e aa 3e bc 4a 71 be 0b 6b 81 3e c0 a9 05 bf
       0.33323908 -0.23563665 0.2527698 -0.5221214
000060 a3 16 27 3c f6 6b 7b 3e 4d 11 a3 3f cd ab 99 3f
       0.010198268 0.24552903 1.2739655 1.2005554
000070 4a 17 fd be 26 f9 4b 3e 2a 86 5a 3e 95 19 11 3f
       -0.4943183 0.19919261 0.21340242 0.5667966

sequential_223_1/dense_446_1/MatMul f4 [32, 8]
000000 a2 1d 9c 3e 65 2e 8b 3e 9c 1a b9 bc da a6 78 3e
       0.30491358 0.27183834 -0.022595696 0.24282399
000010 fe db e8 3e 65 d9 ff 3d 7d 2a 47 3e 46 9e 5f 3e
       0.4548034 0.124926366 0.19449802 0.2183772
000020 9b d2 7a 3f 96 b3 a2 be 12 51 08 40 11 11 ea be
       0.9797761 -0.31777638 2.1299481 -0.45716146
000030 20 ec 52 40 e7 7c c5 3d 36 83 26 3f 0a aa 32 bc
       3.295662 0.09642964 0.6504396 -0.010904798
000040 43 de 73 3f 49 12 96 3e 87 ab 08 3f 71 79 92 3e
       0.9526102 0.29310825 0.5338673 0.28608277
000050 f4 94 20 3f 3b 2b 91 3f a9 f6 bf 3e 4f da 1f 3f
       0.62727284 1.1341318 0.37492874 0.6244249
000060 de 0f 84 3e 21 49 c7 3e dc 3d a1 be 95 8a c9 bd
       0.25793356 0.3892298 -0.31492507 -0.098408855
000070 df f7 c4 bd 50 18 40 3e 9c d1 3d 3e 08 f0 85 3e
       -0.0961759 0.18759274 0.18536991 0.26159692
000080 d2 02 4b be 1c 27 bf 3e a6 b8 87 be 6e 1c cc 3e
       -0.19825295 0.37334526 -0.26508063 0.3986544
000090 e7 e4 45 3f b2 9d bd bc f5 a0 24 3e 6b 5e ef bc
       0.773024 -0.023146484 0.16077025 -0.029219827
0000a0 91 9d 8b 3d 05 17 ac 3e 21 56 0e 3f 1a 92 9e 3e
       0.06817163 0.33611313 0.5560017 0.30970842
0000b0 6e 6e d0 3f 93 5a 64 bd 7c f5 7b 3d 88 06 88 bd
       1.62837 -0.05575044 0.06151341 -0.06641871
0000c0 3d 59 4a 3d 2d f4 7b be 16 6e 69 bc cd ef a4 3e
       0.04940151 -0.24604864 -0.014247438 0.32214203
0000d0 98 93 ab 3c 68 7d ea 3d 2e 9b c3 3e 49 20 7f 3e
       0.020944402 0.114497006 0.3820433 0.2491466
0000e0 ea 36 f3 be 96 1b eb 3f 68 e2 d5 40 8d b6 c0 bf
       -0.47502834 1.8367794 6.6838875 -1.505571
0000f0 98 db 2d 3f 3e 6c 49 3d 68 ae 00 be 9c 2b 0a 3e
       0.679132 0.049175493 -0.1256653 0.13493198
000100 e9 c6 6d 3f aa 62 4d bd 04 e5 14 40 31 9a 71 bf
       0.9288164 -0.05014292 2.326478 -0.943759
000110 82 ca 4f 40 71 37 63 3d b7 eb dc 3e f4 05 2f bd
       3.246735 0.055472795 0.43148586 -0.042730287
000120 19 f6 db bd f6 57 96 3d e3 7d e6 3d 4e fe 07 3f
       -0.10740299 0.07340996 0.1125448 0.53122413
000130 9e d7 bc 3e 70 43 ca 3d e3 85 10 be d8 33 7d 3e
       0.36883253 0.09876144 -0.14113574 0.24726808
000140 1a 23 d8 bd 51 27 4b 3f 7d 15 3c 3f 41 e3 58 3e
       -0.1055357 0.7935687 0.7347029 0.2118044
000150 70 32 ac bf 17 f6 0b 40 8f 8f 54 3f 35 1c d2 bf
       -1.3452892 2.1868951 0.83031553 -1.6414858
000160 a0 61 5e bf 15 b9 35 3f fa 0d f9 c0 a9 7d 46 40
       -0.86867714 0.7098554 -7.782956 3.1014197
000170 95 7e 8d 40 e7 68 17 3e 60 89 04 bb c0 8e b9 3d
       4.421702 0.14786111 -0.0020223483 0.090604305
000180 43 f8 5c be 15 b4 a0 3e 63 de 32 be ac 75 9d 3e
       -0.2157908 0.31387392 -0.17467646 0.3075384
000190 2e 6c 7d 3f fa 47 be bc 56 08 e3 3c 43 56 69 bd
       0.98993194 -0.02322768 0.027713936 -0.05696703
0001a0 c8 44 6a bf 33 42 52 be b8 a0 56 bf 96 43 a7 3e
       -0.915112 -0.20533065 -0.8383899 0.3266875
0001b0 5e eb 0a 40 a1 3a 3c c0 d8 01 7d bd 4c c8 8c 40
       2.1706157 -2.9410784 -0.061769336 4.3994503
0001c0 53 ad f7 3f de b3 6b bf 31 c6 54 3f e1 16 60 bf
       1.9349769 -0.9207133 0.83114916 -0.8753491
0001d0 a0 6a 68 c0 39 31 bb 3c c0 1f 57 c0 04 4f 60 bf
       -3.6315079 0.02285062 -3.3613129 -0.8762057
0001e0 ac 34 22 be 73 2d 34 3e 62 5c 97 be 3a ef 53 be
       -0.15840405 0.17595463 -0.2956267 -0.20696726
0001f0 ca ce 80 bf a6 a7 81 be bb b8 08 bf 9f f4 ce 3c
       -1.0063107 -0.25323218 -0.53406876 0.025263129
000200 e5 57 c4 be e7 4c b2 be 60 03 23 bf e9 8c a8 be
       -0.38348308 -0.34824297 -0.63677025 -0.32920006
000210 f8 71 0f bf 01 ff 4b 3f 56 f1 1c 3f 83 e2 ef be
       -0.5603328 0.7968598 0.6130575 -0.46852502
000220 3f ff 17 3e 87 70 e2 3e ea aa ac 3f dc 29 83 3e
       0.14843462 0.44226477 1.3489659 0.25617874
000230 eb 54 05 40 14 5a 68 3d db b1 6e 3f a9 88 4d be
       2.083308 0.05672653 0.93240136 -0.20071663
000240 50 78 c7 be a8 7d 96 3e 2c 72 a2 3d 16 96 e3 3c
       -0.3895898 0.29392743 0.07931933 0.027781527
000250 ef 01 41 bf 0c f4 f2 3d ab 30 fb 3f 18 eb f1 3e
       -0.75393575 0.118629545 1.9624227 0.47249675
000260 10 20 c4 3e f2 99 5f 3e ef bc 92 3f 0d f6 70 be
       0.38305712 0.21836069 1.1463908 -0.23531361
000270 7a 2e 0d 40 66 f1 e7 bd 2b 46 09 3f a8 23 d7 3d
       2.2059617 -0.1132534 0.5362269 0.10504848
000280 c7 c2 c4 bc d3 44 b1 3e f4 53 61 3f fc b7 54 bd
       -0.024018658 0.3462282 0.8801873 -0.051933274
000290 b5 a1 1b 40 1b e9 97 bd f2 4b 45 3e 65 0c ec bc
       2.4317448 -0.07417508 0.19267252 -0.028814504
0002a0 ad df d2 be c9 b0 9c 3e 50 28 e1 3b ee 32 d5 3e
       -0.41186276 0.30603626 0.0068712607 0.4164042
0002b0 5e 4a 35 bf 36 74 f6 3f e5 67 fe be 74 ec a9 be
       -0.708166 1.9254215 -0.4968864 -0.33188212
0002c0 c0 66 9e be 77 7a bb be 85 eb 3c be d0 fc cb 3d
       -0.30937767 -0.3661687 -0.18449219 0.099603295
0002d0 db 46 5a bc cc 74 52 bd aa 5d a2 3e 11 ff 3b 3e
       -0.013322557 -0.051380917 0.31712085 0.18359019
0002e0 d3 ff 16 40 9b 85 cc bf 24 60 85 c0 d6 fc 8a be
       2.3593643 -1.5978273 -4.167986 -0.27146024
0002f0 1f b4 69 c0 aa ea f4 bd 4d 7d 8f bf f9 23 cf 3d
       -3.6516187 -0.11958821 -1.1210114 0.10114283
000300 99 7d b6 bd bb 70 a8 3e 9d 58 41 be 8f ff cb 3e
       -0.089106746 0.32898507 -0.1888146 0.39843413
000310 80 46 28 3f e1 cc 92 3c 5c 54 ca 3d 13 41 f4 bc
       0.65732574 0.01791996 0.098793715 -0.029816186
000320 70 37 c1 3d 6a ac 4b 3e 93 7a a2 3e db 3a 06 3e
       0.09434402 0.1988999 0.31734142 0.13108389
000330 0e 20 29 be ef 05 27 bd 78 36 d7 bc 4d f2 14 be
       -0.16516134 -0.040777143 -0.02627109 -0.14545555
000340 17 b8 69 c0 9e fe 25 40 5e 07 44 40 c5 13 18 3f
       -3.651861 2.5936656 3.0629497 0.59405166
000350 d9 a4 82 3f da b9 9b bd 20 a6 1f 3e c9 f5 86 3d
       1.0206558 -0.07603808 0.15590715 0.065898485
000360 0c ec 89 3f 9a 07 cb be 81 ea 2b 40 0b a2 63 bf
       1.0775161 -0.39654237 2.686188 -0.8891913
000370 4c f3 58 40 b6 38 3f 3d 28 67 10 3f 03 fc 02 bd
       3.3898497 0.046684943 0.56407404 -0.03197862
000380 4a 56 90 3e d4 37 57 be 64 5a 98 be 63 da 20 3f
       0.28190833 -0.2101739 -0.29756463 0.6283323
000390 27 35 0e 3c 20 1c ae 3d ca 94 79 be f0 8a 0c bf
       0.008679665 0.08501458 -0.24373165 -0.548995
0003a0 59 27 ad be 40 67 3b 3f 20 bd 81 3f 90 98 9d 3e
       -0.33819082 0.7320442 1.0135841 0.30780458
0003b0 ff a4 f4 3f 4d 4b 00 be 77 5a 1f bf 7e b3 94 bd
       1.9112853 -0.12528725 -0.62247413 -0.07260798
0003c0 54 67 55 3c c2 8a 1a 3f 06 81 de be 56 ba 7d 3f
       0.013025124 0.6036798 -0.43457812 0.9911245
0003d0 aa e8 23 bd b4 cf 07 c0 52 bd 37 3e a2 3f 82 bf
       -0.040016808 -2.1220522 0.17943314 -1.0175669
0003e0 60 ac a2 3c ad cf 9c 3e 58 9e 9e 3f f3 92 97 be
       0.019857585 0.30627194 1.2392073 -0.296043
0003f0 26 f6 09 40 12 bf 18 c0 44 bc a1 3d 9f 20 f8 3f
       2.1556487 -2.386662 0.07897237 1.9384955

sequential_223_1/dense_446_1/Relu;sequential_223_1/dense_446_1/BiasAdd f4 [32]
000000 e4 4c a8 bf 2d 62 f0 3f 97 77 1a 3e d6 4e dd ba
       -1.3148465 1.8779961 0.15084682 -0.0016884457
000010 27 4e 8f 3e 53 c6 86 3e a4 62 a0 bf dd 9a a2 c0
       0.27989313 0.26323184 -1.2530103 -5.081404
000020 1c e7 f0 3f 02 7a b3 bf 13 aa d9 be 8a a6 de bf
       1.8820529 -1.4021609 -0.4251257 -1.7394574
000030 58 d5 86 bd ca ed ce c0 f0 3e 48 c0 bc 3f 5b c0
       -0.06583661 -6.466527 -3.1288414 -3.425765
000040 09 e4 3b c0 79 49 95 3f 19 6c b1 bf 56 2a 54 3f
       -2.9357932 1.1663047 -1.3861114 0.828771
000050 16 d0 48 3f b8 1a 0d c0 e3 87 96 bf ae 85 79 c0
       0.78442514 -2.2047558 -1.1760219 -3.8987842
000060 8c 06 fc 3d fb c5 e4 bf 8c f3 56 40 91 6a 06 40
       0.12305936 -1.7872919 3.358615 2.1002543
000070 43 1a 3f c0 02 31 9d be 20 34 0e bf 65 dd b3 be
       -2.985978 -0.30701452 -0.55548286 -0.35129848
