best_heat_model.tflite (tflite, 2824 bytes, 3 tensors)

arith.constant1 f4 [1, 32]
0	0x3f87002e	1.054693
1	0x3c250111	0.010071055
2	0x3f46ddaf	0.7768201
3	0xc0414be1	-3.0202563
4	0xbe0ee0c0	-0.13952923
5	0x3e8ecb01	0.27889255
6	0xbc096677	-0.008386246
7	0xbe0882ee	-0.13331196
8	0x3f495afb	0.7865445
9	0x3f413699	0.75473934
10	0xbebddb6a	-0.37081462
11	0x3f982fdf	1.1889609
12	0x3ee4b24b	0.44667277
13	0x3ec5c01b	0.38623127
14	0x3e9951fd	0.29945365
15	0x3e0ef4d0	0.13960576
16	0x3f3d78a2	0.74012196
17	0xbc0ea2d6	-0.008705815
18	0x3ecd8785	0.40142456
19	0x3ec125ba	0.37724096
20	0xbe4c5ec9	-0.19958033
21	0x3d499e1d	0.049223054
22	0x3f809c88	1.004777
23	0x3e6c2f59	0.23064937
24	0x3eac460d	0.33647195
25	0x3e9d3884	0.3070718
26	0x3d2c111a	0.042008497
27	0xbfb9b3c6	-1.4507987
28	0x3edd9dfd	0.43284598
29	0xbe0ba633	-0.13637619
30	0x3f3f870b	0.74815434
31	0x3fa07a3c	1.2537303

sequential_114_1/dense_228_1/MatMul f4 [32, 8]
0	0x3ebf6624	0.37382615
1	0xbeee7a8e	-0.46577877
2	0x3f748a46	0.9552349
3	0xbf0d32c0	-0.55155563
4	0x400fce1a	2.2469544
5	0xbe57045d	-0.20997758
6	0x3f177e03	0.59176654
7	0x3d789fcf	0.06069928
8	0x3e8ff655	0.28117624
9	0x3e9a8098	0.30176234
10	0x3f611537	0.87922996
11	0xbe33e4d2	-0.17567757
12	0xbd1a293a	-0.037636973
13	0xbe955f6c	-0.29174364
14	0xbea27d6f	-0.31736323
15	0x3e90380f	0.2816777
16	0xbffd44ef	-1.9786662
17	0x3fd91b4a	1.6961453
18	0x40345155	2.817464
19	0x3f539847	0.8265423
20	0x3f886d53	1.0658363
21	0xbd3e43e3	-0.04645146
22	0xbe1652b5	-0.14679988
23	0xbd3b715e	-0.045762412
24	0xbf79e750	-0.9761858
25	0x3f8773e6	1.0582244
26	0x40af79e2	5.4836283
27	0xbffba561	-1.9659845
28	0xbeb996a8	-0.36247754
29	0x3c29f038	0.010372214
30	0xbdce3249	-0.10068185
31	0x3d703a46	0.058649324
32	0xbeedffb7	-0.46484157
33	0xbe5f271b	-0.21792261
34	0xbf8a83d8	-1.0821486
35	0x3ecc51bf	0.39906117
36	0x3e9284c0	0.28616905
37	0xbe65adfe	-0.22429654
38	0xbdbf727c	-0.09348008
39	0x3e8cff21	0.27538398
40	0x3e5a0f65	0.21294935
41	0x3b399bb0	0.0028321557
42	0x3f0bdec9	0.5463682
43	0xbe203ff7	-0.156494
44	0x3f9cec79	1.2259666
45	0x3d1e5014	0.038650587
46	0x3d215b2c	0.03939359
47	0xbdff2550	-0.12458289
48	0xbeccdce8	-0.40012288
49	0x3cbe7417	0.023248715
50	0xbf02f70d	-0.5115822
51	0x3f2dc8c0	0.67884445
52	0x3f46b5eb	0.77621335
53	0x3c790fc9	0.015201517
54	0x3e6f9403	0.23396306
55	0xbe93b81f	-0.2885141
56	0xbdff2eb8	-0.12460083
57	0x3eaa6418	0.3327949
58	0xbf8f558b	-1.1197981
59	0x3eeb3f05	0.45946518
60	0xbe403985	-0.18771942
61	0xbdc74d7b	-0.09731575
62	0x3ec1b9d9	0.37837103
63	0xbe3bf74a	-0.18356052
64	0xbfd88725	-1.6916243
65	0x3f981ee3	1.1884426
66	0x3fd76bd4	1.6829782
67	0x3f38d468	0.72199106
68	0x3e356d70	0.17717528
69	0x3da16060	0.0787971
70	0xbdd1e572	-0.10248841
71	0xbdf9116d	-0.12161527
72	0x3dce8918	0.10084742
73	0xbe52b0fa	-0.20575324
74	0x3fa9971b	1.3249239
75	0xbec5efca	-0.38659507
76	0x4016f8d5	2.3589375
77	0x3e41d20e	0.18927786
78	0x3de59714	0.112104565
79	0x3c3ff042	0.011714997
80	0x3e87c4d4	0.26517355
81	0xbe8db8ef	-0.27680156
82	0x3e0b3bc1	0.13597013
83	0x3e887c56	0.2665736
84	0x3e51922b	0.20465915
85	0xbedf4614	-0.43608153
86	0x3ead7564	0.33878624
87	0xbec6aeaf	-0.38805148
88	0xbf08efb3	-0.5349075
89	0x3f2a6261	0.66556364
90	0xc08f7290	-4.4827347
91	0x3fdc8641	1.7228471
92	0x3fa0bf79	1.2558433
93	0x3dc9d54b	0.098551355
94	0xbda62c6a	-0.0811394
95	0x3d3af168	0.04564038
96	0x3ead54af	0.3385367
97	0xbe2535c7	-0.16133796
98	0x3e291530	0.16511989
99	0x3cf3497b	0.029698124
100	0x3fad8410	1.3555927
101	0x3e7f05d4	0.24904567
102	0x3cc81a16	0.024426501
103	0xbe146076	-0.14489922
104	0xbde6269b	-0.11237832
105	0x3e101872	0.14071825
106	0x3f5a4185	0.85256225
107	0xbebaa813	-0.36456355
108	0x3fec9d53	1.8485512
109	0x3c53eb35	0.012934496
110	0x3e511943	0.20419793
111	0x3d14f52c	0.036366627
112	0xbf0f4bb5	-0.55974895
113	0x3dd749cd	0.10512123
114	0xbd54beaf	-0.051939663
115	0x3f1c7a2a	0.6112391
116	0xbebf8b82	-0.37411124
117	0xbdb42ef2	-0.087980166
118	0x3f875703	1.0573429
119	0xbea1f10a	-0.3162921
120	0xbee3ccfd	-0.4449233
121	0x3dab86bc	0.08375308
122	0xbdf0a6ff	-0.11750602
123	0xbdcdeeff	-0.100553505
124	0x3f8f88a0	1.121357
125	0x3df5af56	0.11996333
126	0x3e8c1d53	0.27366123
127	0x3ec711a6	0.38880652
128	0xbe5cb3da	-0.21552983
129	0x3ef6039e	0.48049635
130	0x3f01c5cc	0.5069244
131	0xbf7eaed1	-0.994855
132	0x403002f0	2.7501793
133	0xbd91a294	-0.071110874
134	0x3d8e1a99	0.06938667
135	0xbd156c25	-0.036480088
136	0xbd43bdd1	-0.047788445
137	0x3e841c9e	0.25803083
138	0xbf1297ed	-0.5726307
139	0x3f4e63cc	0.8062103
140	0x3f49ae4b	0.78781575
141	0xbeef2bda	-0.46713144
142	0x3d6d9806	0.05800631
143	0xbc82bf98	-0.0159605
144	0x3d070974	0.032968
145	0xbee450b1	-0.44592813
146	0x3f0d855d	0.5528162
147	0xbe0636ee	-0.13106892
148	0x3faea4a5	1.3643996
149	0x3f45e086	0.7729572
150	0x3f4edf54	0.8080952
151	0xbf1b1790	-0.6058283
152	0xbe2f2fb3	-0.1710804
153	0x3ef22b06	0.4729845
154	0x3e1a7a25	0.15085657
155	0xbeee804b	-0.46582255
156	0x400b0db9	2.1727126
157	0x3d9a7af9	0.075429864
158	0x3d1b23ee	0.037876062
159	0xbe883b3d	-0.26607695
160	0xbe4770cc	-0.19476622
161	0xbecf801f	-0.40527436
162	0xbf878367	-1.0586976
163	0x3ec035ad	0.3754095
164	0x3ecec5ad	0.4038519
165	0x3f9a952b	1.2076772
166	0xbf04b769	-0.5184236
167	0xbf41a933	-0.756488
168	0x3e3d93db	0.18513434
169	0x3d606620	0.054784894
170	0x3e1d0973	0.15335636
171	0xbd8fd012	-0.07022108
172	0xbe96d615	-0.29460207
173	0xbeee0b4c	-0.46492994
174	0x3f387bef	0.7206411
175	0x3ef7c071	0.4838901
176	0x3eb51fd2	0.3537584
177	0xbeac1b9b	-0.3361481
178	0x3f835593	1.026049
179	0xbf202c58	-0.62567663
180	0x401574d1	2.335255
181	0x3c79bce1	0.015242786
182	0x3f005eb7	0.50144523
183	0x3e3ac8eb	0.18240707
184	0xbea575f3	-0.3231655
185	0x3d36c316	0.044619642
186	0xbb33596a	-0.0027366527
187	0x3e5e81df	0.2172923
188	0x3f72ca50	0.94839954
189	0xbe0879b4	-0.13327676
190	0x3f1ba0ed	0.6079243
191	0xbe8e955c	-0.27848327
192	0xbed3ea97	-0.41389915
193	0x3e899451	0.2687097
194	0xbf447830	-0.7674589
195	0x3f669192	0.9006587
196	0xbf579e48	-0.84225893
197	0xbd389c1e	-0.04507076
198	0x3fe535ee	1.7907083
199	0xbdf27657	-0.11838978
200	0xbf00f02b	-0.5036647
201	0xbc91fca3	-0.017820662
202	0xbe2b4649	-0.1672603
203	0x3dd279c0	0.10277128
204	0x3f823f46	1.017556
205	0xbd86a6a9	-0.06574757
206	0x3f7b7510	0.982255
207	0xbeaf221b	-0.34205708
208	0xbeec3a9f	-0.46138474
209	0x3e4126aa	0.18862405
210	0x3e272199	0.1632141
211	0x3ea71616	0.32634038
212	0x3f347f28	0.70506525
213	0xbf48ec4f	-0.7848558
214	0x3eb83083	0.35974512
215	0xbeb52a11	-0.35383657
216	0x3f03d89e	0.51502407
217	0xbe8f877d	-0.28033057
218	0x3e8c6d1c	0.27426994
219	0xbf4fdede	-0.81199443
220	0xbf8b5855	-1.0886332
221	0xbe2e7704	-0.17037588
222	0xc01c0257	-2.4376428
223	0xc003d59f	-2.0599134
224	0xbe0d58a4	-0.13803345
225	0x3f07c7a9	0.5303903
226	0x3ff85272	1.940016
227	0xbee5575e	-0.44793218
228	0x3fb61e49	1.4227992
229	0xbda491ea	-0.080356434
230	0xbf60bd86	-0.8778919
231	0xbcca1627	-0.024668766
232	0xbf052be5	-0.520201
233	0x3cb96b0a	0.022634048
234	0xbf0961ec	-0.5366504
235	0xbe1dd55b	-0.1541342
236	0x3ef93927	0.48676416
237	0x3ec63712	0.3871389
238	0x3eb23d67	0.3481247
239	0xbe79368e	-0.24337217
240	0x3e22248a	0.15834251
241	0xbe45d097	-0.19317852
242	0x3f752344	0.95756936
243	0xbd881e92	-0.06646456
244	0x401a437c	2.410369
245	0xbe72765c	-0.23677963
246	0x3ebc79e8	0.36811757
247	0xbe808e54	-0.25108588
248	0xbf040465	-0.51569206
249	0x3f8fd99f	1.1238288
250	0x408c3c48	4.3823586
251	0xbf154127	-0.5830254
252	0x3f802fc8	1.0014582
253	0xbe6c3d10	-0.23070168
254	0xbd906907	-0.070512824
255	0xbe5d52c9	-0.21613611

sequential_114_1/dense_228_1/Relu;sequential_114_1/dense_228_1/BiasAdd f4 [32]
0	0x3fd87033	1.690924
1	0xbfe23f39	-1.7675544
2	0x3fc4570e	1.5339067
3	0xc07c341d	-3.9406807
4	0x3f336ea0	0.70090675
5	0x3f490eac	0.7853801
6	0x3f99334d	1.1968781
7	0xbf850017	-1.0390652
8	0x3ff96e1b	1.9486727
9	0x3f895420	1.0728798
10	0xc009ce97	-2.1532342
11	0x3f052ebe	0.5202445
12	0x3fa4013f	1.281288
13	0x3f7f6a1a	0.99771273
14	0xbf226301	-0.6343232
15	0x3f83f4b5	1.0309054
16	0x3fd64abd	1.6741558
17	0x3f434a02	0.762848
18	0x3f697b28	0.91203547
19	0x3f6737c2	0.90319455
20	0xbfdd0c04	-1.7269292
21	0xbface40f	-1.3507098
22	0x3fca891f	1.5823096
23	0x3f8ad0e8	1.0845003
24	0xbed83e9b	-0.42235264
25	0x3fb4196a	1.4070256
26	0x3f0a9023	0.54126185
27	0xc09c11c4	-4.8771687
28	0xbeaec392	-0.34133583
29	0xbfbd50c4	-1.4790273
30	0x3fa9892c	1.3244987
31	0xbf340dab	-0.70333356
